star-net-api/model/model_state_dict.pth (torch, 75330 bytes, 11 tensors)

fc1.weight f4 [64, 3]
0	0x3f2cc9aa	0.67495215
1	0xbdbe3ebd	-0.0928931
2	0xbe5b9cc2	-0.21446517
3	0x3f23dbb2	0.64007103
4	0xbecd33fc	-0.40078723
5	0xbf90794d	-1.1287018
6	0x3f221344	0.63310647
7	0xbf50e1c7	-0.8159451
8	0xbed7151f	-0.42008302
9	0xbdbae1a1	-0.091250665
10	0x3e1cd1f3	0.15314464
11	0x3f7696ec	0.9632404
12	0x3e936c63	0.2879363
13	0x3ec76bf4	0.3894955
14	0x3e9ce1f8	0.3064115
15	0x3f1be223	0.6089193
16	0xbf3dada1	-0.7409306
17	0xbf4678c1	-0.77528006
18	0x3e9fb684	0.31193936
19	0x3e35f7e4	0.17770344
20	0xbededbbe	-0.43527025
21	0xbf46ed16	-0.77705514
22	0x3c1f9895	0.009740968
23	0x3ef28d96	0.47373646
24	0x3edeebd9	0.43539312
25	0x3f06715a	0.5251671
26	0xbecdafb3	-0.4017311
27	0xbf54cfcd	-0.8312958
28	0x3e10d660	0.14144278
29	0x3e85899f	0.2608156
30	0x3f1f9c46	0.6234783
31	0xbf32f139	-0.69899327
32	0x3f4c03b0	0.79693127
33	0xbf64f690	-0.89438725
34	0x3e009a55	0.12558873
35	0x3ed342f7	0.41262028
36	0xbf34fa61	-0.7069455
37	0x3ee20d2b	0.4415067
38	0xbe6feebc	-0.23430914
39	0x3c6cac4a	0.014445374
40	0xbd38b3b0	-0.04509324
41	0xbd2574a7	-0.04039445
42	0xbef29c09	-0.4738467
43	0x3eddfa9e	0.43355268
44	0xbdd5da25	-0.104419984
45	0x3eeae6a1	0.4587908
46	0x3ebd0949	0.36921147
47	0xbe9c9a90	-0.30586672
48	0xbd5e9514	-0.05434139
49	0xbd2444c0	-0.040104628
50	0xbdf62308	-0.120184004
51	0x3ec2d40f	0.38052413
52	0x3e4faa04	0.202797
53	0x3f63993a	0.8890568
54	0xbcb7acf7	-0.022421343
55	0x3f285661	0.65756804
56	0xbf41afb8	-0.7565875
57	0xbdd7ee54	-0.10543504
58	0xbdcf0dc5	-0.10110048
59	0x3d16a24e	0.03677588
60	0x3edbd1ea	0.4293359
61	0x3e97fcb4	0.29684985
62	0x3ecdcafe	0.40193933
63	0xbe0d3b17	-0.13792072
64	0x3d5c8514	0.05383785
65	0x3ed480a4	0.41504395
66	0x3f655009	0.8957525
67	0x3eb159f7	0.3463895
68	0xbf1f05fc	-0.62118506
69	0x3ec2ef04	0.3807298
70	0x3eb58b2d	0.35457745
71	0x3f3dbeb4	0.74119115
72	0x3ef79bcf	0.4836106
73	0xbeac968f	-0.33708617
74	0x3ea42ca8	0.3206532
75	0x3ed34d9b	0.41270146
76	0x3f13d915	0.57753116
77	0xbde23a04	-0.11046222
78	0xbf94d49b	-1.1627382
79	0x3e80d1f8	0.25160193
80	0xbc8d3862	-0.0172388
81	0x3e52f8e3	0.20602755
82	0x3e8dac41	0.27670482
83	0x3f16b431	0.588687
84	0xbf189aac	-0.5961101
85	0x3ef7a0ed	0.48364964
86	0xbe2f87ab	-0.17141597
87	0x3e7f2c26	0.24919185
88	0xbc41818e	-0.011810673
89	0xbf006c50	-0.5016527
90	0xbe87e148	-0.26539063
91	0x3da856ec	0.08219704
92	0x3f7ac5ad	0.9795788
93	0xbeeed9fe	-0.4665069
94	0xbee9fb8e	-0.45699733
95	0x3f31b040	0.6940956
96	0x3d593b1c	0.053034887
97	0x3f26eae4	0.65202165
98	0xbd9f1b5e	-0.07768892
99	0x3ecb3951	0.39692166
100	0xbed4710d	-0.414925
101	0x3e814b79	0.25252894
102	0xbf506ba4	-0.81414247
103	0x3ec05734	0.3756653
104	0xbda5f551	-0.08103431
105	0x3efb58d3	0.49091205
106	0x3ea0edcc	0.31431425
107	0x3dccca64	0.099995404
108	0x3ea32ed6	0.3187167
109	0xbf1c31f1	-0.61013705
110	0xbca81332	-0.020516966
111	0xbd93c0c9	-0.07214505
112	0x3da8c488	0.0824061
113	0x3ef3c27b	0.47609314
114	0xbf1df90b	-0.61708134
115	0xbf06750e	-0.5252236
116	0xbe9992c5	-0.2999479
117	0xbe5bad12	-0.2145274
118	0x3e8e0a8c	0.27742422
119	0xbf28c9c1	-0.6593285
120	0x3db316e8	0.087446034
121	0x3ea86716	0.32891148
122	0x3eb87426	0.36026114
123	0xbf25bc39	-0.6474033
124	0x3f3f3a28	0.74698114
125	0xbebb153f	-0.36539647
126	0xbec7fd66	-0.39060515
127	0x3ec40ecd	0.38292542
128	0x3e1c13f7	0.15241991
129	0xbf2198b0	-0.6312361
130	0xbeaef85b	-0.34173855
131	0xbf169eea	-0.58836234
132	0xbe69c165	-0.2282768
133	0xbe145a92	-0.14487675
134	0xbe67b29e	-0.22626731
135	0x3ed60c19	0.41806105
136	0xbe0833a0	-0.13300943
137	0xbef464c9	-0.47733143
138	0x3e0e3c78	0.13890254
139	0x3ec8ef56	0.392451
140	0xbdec487e	-0.11537264
141	0x3e02f574	0.12788945
142	0xbe00535b	-0.12531798
143	0x3ec6babc	0.38814342
144	0xbf21f1af	-0.63259405
145	0xbed97af2	-0.42476612
146	0xbe95a138	-0.29224563
147	0xbf3c7d85	-0.7362903
148	0xbeed3a4f	-0.46333548
149	0xbe08304f	-0.13299678
150	0xbe185bc5	-0.14878757
151	0x3d17a005	0.03701784
152	0x3da75fb1	0.081725486
153	0xbf3841aa	-0.71975195
154	0x3dd2a25c	0.10284874
155	0xbe952579	-0.29130152
156	0xbf400217	-0.7500319
157	0xbf1efad0	-0.6210146
158	0x3e20e7eb	0.1571347
159	0xbe1899df	-0.14902447
160	0xbf101ab3	-0.5629074
161	0x3f2bcfaf	0.67113775
162	0xbd71d92a	-0.059044994
163	0xbdea40e7	-0.114381604
164	0xbd9a54cd	-0.07535706
165	0x3ed165c6	0.4089796
166	0x3ebfc27a	0.3745306
167	0x3eec42ea	0.461448
168	0x3e59c7e9	0.21267666
169	0xbef1be72	-0.4721561
170	0xbf284130	-0.6572447
171	0xbebec4d2	-0.37259537
172	0x3f150991	0.5821772
173	0xbde43e35	-0.111446775
174	0x3ec535dd	0.38517657
175	0x3f1e4550	0.6182451
176	0xbe35e019	-0.17761268
177	0xbebf1ccf	-0.37326667
178	0xbf460817	-0.77356094
179	0xbeed7bbc	-0.46383464
180	0xbee8828b	-0.45412096
181	0xbee13441	-0.4398518
182	0xbf16268e	-0.5865258
183	0xbf27a3cb	-0.65484303
184	0xbddac7f8	-0.10682672
185	0xbeef011f	-0.46680543
186	0x3edf428d	0.43605462
187	0xbf4c32b1	-0.7976485
188	0x3dc15ad8	0.09441155
189	0x3f1db858	0.6160941
190	0xbe2c0956	-0.16800436
191	0x3ecadf52	0.39623505

fc1.bias f4 [64]
0	0x3f119fec	0.56884646
1	0xbeac0386	-0.33596438
2	0xbe9fa522	-0.31180674
3	0x3ee060f2	0.43823963
4	0xbf691704	-0.91050744
5	0xbdd8076d	-0.10548291
6	0x3e20e72c	0.15713185
7	0xbe0651f3	-0.13117199
8	0x3efc82c4	0.49318516
9	0xbe7704cd	-0.24122925
10	0xbea8546a	-0.32876903
11	0x3f29b8d4	0.6629765
12	0xbea4153f	-0.3204746
13	0xbf073698	-0.5281768
14	0xbe7d1c27	-0.2471777
15	0x3eec5771	0.46160462
16	0xbef314ab	-0.47476706
17	0xbda10f59	-0.078642555
18	0x3d1129a1	0.03544009
19	0xbe89e59f	-0.26933
20	0x3f35259b	0.70760506
21	0x3f04ebaf	0.51922125
22	0xbed123f5	-0.40847746
23	0x3d85de7f	0.065365784
24	0x3ed3c072	0.41357762
25	0x3f247149	0.6423536
26	0x3e0a2ef5	0.13494475
27	0x3f1a2303	0.60209674
28	0xbee30bbd	-0.44344893
29	0x3ed5e4ca	0.41776115
30	0x3e8fb515	0.28067842
31	0x3f180201	0.5937806
32	0x3eb835a0	0.35978413
33	0x3f26dcad	0.65180475
34	0x3e366155	0.17810567
35	0x3f2ddcb6	0.67914903
36	0x3ebe7c59	0.37204245
37	0x3ead957f	0.3390312
38	0xbe5c7629	-0.2152945
39	0x3f11df1a	0.5698105
40	0x3eddca1c	0.4331826
41	0xbe82bbb3	-0.25533828
42	0x3f2ee397	0.68316025
43	0xbce84964	-0.028355308
44	0x3f0e7895	0.55652744
45	0xbf5180b0	-0.81836987
46	0xbf09e511	-0.5386515
47	0x3f2c4849	0.672978
48	0xbeef532a	-0.46743137
49	0xbedcf83c	-0.43158138
50	0x3f0d92fb	0.553024
51	0xbe271d96	-0.1631988
52	0x3f1109ef	0.5665578
53	0x3ee96a2c	0.45588815
54	0xbebc5896	-0.36786336
55	0x3f43e6e0	0.7652416
56	0xbee1cd57	-0.44101974
57	0x3eedc006	0.46435565
58	0xbeb209ff	-0.3477325
59	0x3e694641	0.22780706
60	0x3d24c843	0.040230047
61	0xbeb87eaf	-0.36034152
62	0x3d1f112b	0.038834732
63	0x3f13a7ac	0.5767772

fc2.weight f4 [128, 64]
0	0xbdbca3d3	-0.092109345
1	0xbdecbc8e	-0.115594015
2	0x3d993322	0.07480456
3	0x3cb0cbce	0.021581557
4	0xbd87a2fa	-0.06622882
5	0x3cdd0170	0.026978225
6	0xbdb370d8	-0.087617576
7	0xbd96f690	-0.07371247
8	0xbdbd9584	-0.092570335
9	0x3d04b8b3	0.032402705
10	0x3ddb5aed	0.10710702
11	0x3dc74d4c	0.0973154
12	0xbda61d0d	-0.0811101
13	0x3dde44d6	0.10852973
14	0x3d234ac4	0.039866224
15	0xbdf8eeaa	-0.121548966
16	0x3d675d30	0.056485355
17	0xbd9f792f	-0.07786786
18	0xbcc907d0	-0.024539858
19	0x3dcb1492	0.09916033
20	0xbdcb94ee	-0.099405155
21	0x3dda2e78	0.106533945
22	0x3d8fec1c	0.07027456
23	0xbce916e1	-0.028453292
24	0xbd86eb22	-0.06587817
25	0x3db89041	0.09011889
26	0x3d7e731a	0.06212149
27	0xbe0ed0a6	-0.1394678
28	0xbd1030a6	-0.035202645
29	0x3dac9ab9	0.084279485
30	0x3ce04bc9	0.027379887
31	0xbd5d1447	-0.053974416
32	0xbe0f0174	-0.13965398
33	0xbdfea6c6	-0.12434153
34	0xbcf0519e	-0.029335793
35	0x3d99e8c5	0.075151004
36	0x3d956d0c	0.0729619
37	0xbd6d79b9	-0.057977412
38	0x3d00bcbd	0.031429995
39	0xbd48efc5	-0.049056787
40	0x3da56e96	0.08077733
41	0xbdb8e5f9	-0.09028239
42	0x3db77d2f	0.08959424
43	0xbd9c1a0a	-0.07622154
44	0x3c97c610	0.01852706
45	0x3d0655d0	0.03279668
46	0xbd21c3e4	-0.039493456
47	0xbdaa4b4d	-0.08315144
48	0xbdbec78d	-0.09315405
49	0xbcac0fd4	-0.021003641
50	0x3cfbff52	0.030761395
51	0x3d91f6c5	0.07127146
52	0xbd8f05a8	-0.06983501
53	0x3dc04a1f	0.093891375
54	0xbb1d0280	-0.002395779
55	0xbd93dfc7	-0.072204165
56	0x3d2d8fb0	0.04237336
57	0x3cbb7cf8	0.022886738
58	0x3b7ee6c0	0.0038894862
59	0x3cbdeee2	0.023185197
60	0xbd6afe86	-0.05737164
61	0x3dc65f89	0.09686191
62	0xbe055db3	-0.13024025
63	0x3d437cdd	0.0477265
64	0x3dc96012	0.09832777
65	0xbe7981a4	-0.2436586
66	0xbd57c4c5	-0.05267789
67	0xbdb31c3a	-0.08745618
68	0x3c4757b2	0.012166904
69	0x3e4d18d2	0.20029
70	0xbdb30771	-0.08741654
71	0xbe914a12	-0.28376824
72	0xbd748b6f	-0.059703287
73	0xbee8a276	-0.45436448
74	0xbeac24d0	-0.33621836
75	0xbd8c58df	-0.06852888
76	0xbf365a35	-0.71231395
77	0xbc71a340	-0.0147483945
78	0x3e96e474	0.2947117
79	0x3da624f7	0.08112519
80	0xbde063ae	-0.109565124
81	0x3d89aa92	0.06721987
82	0xbe92b6d6	-0.28655118
83	0x3df430c8	0.11923367
84	0xbd6da7cc	-0.05802135
85	0x3e0277db	0.12741034
86	0xbe04f395	-0.12983544
87	0x3d97734e	0.073950395
88	0x3d01c020	0.031677365
89	0x3e1b5916	0.15170702
90	0xbca9a893	-0.020710265
91	0xbd8c670b	-0.068555914
92	0x3d31b7b0	0.04338807
93	0x3dbe64e1	0.09296585
94	0x3d9a99df	0.0754888
95	0x3baff6f8	0.005370017
96	0x3e016f8e	0.12640211
97	0x3e0f5c55	0.14000066
98	0x3e39832a	0.18116441
99	0x3d1a0073	0.037598085
100	0x3e42f9c6	0.19040594
101	0xbdc280a9	-0.09497196
102	0xbe25a93e	-0.16177842
103	0x3dcf95a1	0.10135961
104	0x3d559791	0.052146498
105	0x3e006d95	0.12541802
106	0xbca812a1	-0.020516695
107	0xbd663b5a	-0.056208946
108	0x3cb11365	0.021615693
109	0xbb9a5d80	-0.004710853
110	0x3d37a0a5	0.044830937
111	0xbdc7cb4b	-0.09755572
112	0xbe976334	-0.29567873
113	0xbe7fdf4c	-0.24987525
114	0x3e1949bf	0.14969538
115	0xbdbbfa53	-0.09178605
116	0xbdad89ed	-0.08473573
117	0x3e0a2eae	0.1349437
118	0x3d88f71c	0.066877574
119	0xbdb0a511	-0.08625234
120	0xbf03e8d0	-0.5152712
121	0x3caf1bbe	0.021375533
122	0x3dceeee2	0.10104157
123	0x3dd40941	0.103533275
124	0x3ddb8c3b	0.10720106
125	0xbe3fb5af	-0.1872165
126	0x3e3e8ec3	0.18609147
127	0xbdef3f28	-0.11681968
128	0xbbf166fe	-0.007367014
129	0x3ec04692	0.3755384
130	0x3dcdbe5a	0.10046072
131	0x3e65cd56	0.2244161
132	0xbf98dfbd	-1.194328
133	0xba189c80	-0.000582166
134	0x3dca1c61	0.09868694
135	0x3e8a1fba	0.2697733
136	0x3d7db883	0.061943542
137	0x3ec0bb9a	0.3764313
138	0xbd915f5d	-0.07098267
139	0x3e7990d2	0.24371651
140	0x3f27171c	0.6526964
141	0xbdc90efe	-0.09817313
142	0xbead55bf	-0.33854482
143	0xbcbc462d	-0.022982681
144	0x3dee69b0	0.11641252
145	0xbe5fea0a	-0.21866623
146	0x3e9cf225	0.30653492
147	0xbd2022d8	-0.03909573
148	0xbe8922c8	-0.26784348
149	0xbd07fb52	-0.033198662
150	0xbe5c546c	-0.2151658
151	0xbe56f3b8	-0.20991409
152	0xbe2a67e4	-0.16641194
153	0xbe2f5d37	-0.17125402
154	0x3ed4327c	0.41444767
155	0xbeae490b	-0.34040102
156	0x3e938902	0.28815466
157	0x3e82bfe8	0.25537038
158	0x3e8a32b7	0.26991817
159	0x3d5e724b	0.054308217
160	0xbe33db58	-0.17564142
161	0x3e0e0f32	0.13872984
162	0x3eda836b	0.4267839
163	0xbe6adbd6	-0.22935423
164	0x3c8ecbc8	0.017431155
165	0xbe95a30e	-0.29225963
166	0x3e784987	0.24246798
167	0x3e9a81f6	0.30177277
168	0xbe8d4275	-0.27589765
169	0x3e41f54c	0.1894123
170	0xbd233ef3	-0.039854955
171	0x3ea7d49d	0.327794
172	0x3ea81905	0.32831588
173	0xbe3ff20d	-0.18744679
174	0xbf851bea	-1.0399144
175	0xbd58f4a5	-0.052967686
176	0x3ec6b98a	0.3881343
177	0x3f09d189	0.5383535
178	0x3e768b49	0.2407657
179	0x3ec49f55	0.3840281
180	0x3eaa55fd	0.3326873
181	0x3dc968f6	0.09834473
182	0x3ccd4730	0.025058359
183	0xbeb967c1	-0.3621197
184	0x3f40fe76	0.75388277
185	0x3dbece15	0.09316651
186	0xbe2d31e7	-0.16913567
187	0x3e37f0f8	0.17963016
188	0x3e9de07d	0.30835333
189	0x3f049c57	0.51801056
190	0xbdd9d321	-0.10635973
191	0xbe93017e	-0.28712076
192	0x3e340f66	0.17583999
193	0xbeab2f3f	-0.33434483
194	0x3cbe2c71	0.02321455
195	0xbe3e95bd	-0.18611808
196	0xbc95e031	-0.01829538
197	0xbd8088c3	-0.06276085
198	0xbd939d69	-0.07207758
199	0xbe525865	-0.20541532
200	0x3d7e6e7b	0.06211708
201	0xbe616dc4	-0.22014529
202	0x3e246c52	0.16056946
203	0x3deb8288	0.11499506
204	0xbeec8103	-0.46192178
205	0xbd2be0e4	-0.04196252
206	0xbd83cb9f	-0.06435322
207	0x3da2a935	0.0794243
208	0xbd8d1426	-0.06888609
209	0x3ca831a9	0.020531492
210	0xbe450a93	-0.19242315
211	0xbc0985d0	-0.00839372
212	0x3d9810f1	0.07425106
213	0x3e4525f7	0.19252764
214	0xbd158618	-0.036504835
215	0x3d2b8b58	0.041880935
216	0x3cb2fb6a	0.0218484
217	0x3e019b2f	0.12656854
218	0x3e4012ef	0.18757223
219	0x3e73ca28	0.23807585
220	0xbd6e70f1	-0.058213178
221	0x3d49ffa0	0.04931605
222	0xbe7ee784	-0.24893004
223	0xba6007c2	-0.0008546078
224	0xbd87461f	-0.066051714
225	0x3e0688fa	0.1313819
226	0x3e56a1af	0.20960115
227	0x3daa0738	0.08302158
228	0x3afb30b9	0.0019164301
229	0x3d6545e6	0.055974863
230	0xbeab094d	-0.33405533
231	0xbd455bce	-0.048183255
232	0x3db1e9eb	0.086871944
233	0xbd870b26	-0.06593923
234	0x3df1a453	0.117989205
235	0xbdde0664	-0.10841063
236	0xbc9b2420	-0.018938124
237	0xbe22a21e	-0.15882155
238	0xbd45a963	-0.048257243
239	0x3dfb40b1	0.12268198
240	0xbe57e435	-0.21083148
241	0xbe36c3d7	-0.17848144
242	0xbb551dec	-0.0032519056
243	0xbcd32422	-0.025774065
244	0xbdcd55ff	-0.10026168
245	0x3daea7da	0.08528109
246	0x3dfcf3ba	0.12351175
247	0x3e2ccd7c	0.16875261
248	0xbf284281	-0.65726477
249	0xbd97ae60	-0.07406306
250	0xbe06bddd	-0.13158365
251	0x3dae9ba4	0.0852578
252	0xbe0c83d5	-0.13722165
253	0xbe3733bc	-0.17890829
254	0x3d364583	0.044499885
255	0x3e2c6a91	0.16837527

fc2.bias f4 [128]
0	0xbd8192dc	-0.06326839
1	0x3d16d87a	0.036827542
2	0x3e49be5e	0.19701526
3	0x3d9a56c0	0.075360775
4	0xbb1c0bd8	-0.002381077
5	0xbb736576	-0.0037139333
6	0x3da7ca39	0.08192868
7	0x3d989680	0.074505806
8	0x3e1d3120	0.15350771
9	0x3e428712	0.18996838
10	0x3e71b1de	0.23603007
11	0x3d80bb90	0.06285775
12	0x3ce4099f	0.027836619
13	0x3d66a475	0.056309182
14	0x3a7f0800	0.000972867
15	0x3da49bd0	0.080375314
16	0x3d536f08	0.05161956
17	0x3e07b104	0.1325112
18	0x3e0f81b5	0.14014323
19	0x3e8dc654	0.27690375
20	0x3ddd1065	0.10794143
21	0xbd700f94	-0.058608606
22	0x3e01dfd5	0.12683041
23	0x3e3df610	0.18550897
24	0x3e3b58a7	0.18295537
25	0xbdb38008	-0.087646544
26	0xbd9ba6b1	-0.07600153
27	0x3d8621a0	0.06549382
28	0x3e436a78	0.19083583
29	0x3e3e78a2	0.18600705
30	0xbdb17cfd	-0.08666418
31	0x3e03d738	0.12875068
32	0x3ceacefa	0.028663147
33	0xbc6aae51	-0.014323787
34	0x3d84ac55	0.06478182
35	0xbcfd6693	-0.0309327
36	0x3e00d571	0.12581421
37	0xbcb9d08c	-0.02268245
38	0x3e16130d	0.14655705
39	0x3e205863	0.15658717
40	0xbc9600fc	-0.018311016
41	0x3d3e295b	0.04642616
42	0xbc9f52a0	-0.019448578
43	0x3d0b2358	0.033969253
44	0x3e2bdc95	0.16783364
45	0x3de07b94	0.10961071
46	0xbd4b5832	-0.049644656
47	0x3e929f87	0.28637335
48	0x3e6a8816	0.22903475
49	0x3c9f8302	0.01947165
50	0x3e0ff371	0.1405771
51	0xbc68f7f8	-0.014219277
52	0xbc8e231f	-0.017350731
53	0x3e2413f2	0.16023234
54	0x3d1912de	0.03737151
55	0x3e010db1	0.12602879
56	0x3e7f018b	0.24902932
57	0x3d4611af	0.04835671
58	0x3bad8f80	0.0052966475
59	0x3e16777a	0.14694014
60	0x3c9ae2fc	0.018907063
61	0x3c7424a6	0.014901316
62	0xb9108374	-0.0001378188
63	0xbddc153a	-0.10746236
64	0x3dd3da72	0.103443995
65	0x3e2fdd4c	0.17174262
66	0x3e832f1d	0.25621882
67	0x3d5e3156	0.05424627
68	0xbd3f10a4	-0.04664673
69	0x3e261ace	0.16221163
70	0x3cd75953	0.02628771
71	0xbd4c3f08	-0.0498648
72	0x3dc9421e	0.09827064
73	0x3e2c00ed	0.16797228
74	0x3e02ca49	0.12772478
75	0x3e2c0d2e	0.16801903
76	0x3d8a1b96	0.06743543
77	0x3e0cbcfb	0.13743965
78	0x3e2874a5	0.16450746
79	0xbc990664	-0.018679805
80	0x3e5eafd7	0.21746765
81	0x3e567e00	0.20946503
82	0x3e366c3a	0.17814723
83	0xbddbca7d	-0.10731981
84	0xbde50eaa	-0.111844376
85	0x3e1a600e	0.15075704
86	0x3da95b0c	0.08269319
87	0xbc8823fc	-0.016618721
88	0x3d9ffeb4	0.07812253
89	0x3da36aff	0.07979392
90	0xbd3317f2	-0.043724008
91	0xbcf95485	-0.03043581
92	0xbd979791	-0.07401956
93	0xbdaa0855	-0.083023705
94	0x3d8e4d5c	0.06948349
95	0xbeba6a23	-0.364091
96	0x3c095953	0.008383113
97	0x3e85cc30	0.26132345
98	0x3e02656c	0.12734002
99	0x3e63839f	0.22218178
100	0x3d931089	0.07180888
101	0x3d1256ba	0.03572724
102	0xbe34e716	-0.17666277
103	0x3e9bd1a3	0.30433378
104	0xbb5c81ca	-0.0033646696
105	0xbd8d1705	-0.06889156
106	0xbc847dcf	-0.016173271
107	0x3d58c085	0.052917976
108	0x3e03555f	0.12825535
109	0x3e4f9e32	0.2027519
110	0x3e534868	0.2063309
111	0xbdd79e82	-0.1052828
112	0x3e182484	0.1485768
113	0x3d6de85a	0.058082916
114	0x3e0bcaf5	0.1365164
115	0x3d752398	0.059848398
116	0x3b166416	0.002294784
117	0x3e7c1a20	0.24619341
118	0x3d3b1585	0.04567482
119	0x3d929ca0	0.0715878
120	0xbd99b76e	-0.075056896
121	0x3e66e99c	0.22550052
122	0x3ddc261e	0.10749458
123	0x3d724243	0.059145223
124	0x3daaa113	0.08331504
125	0xbdd23544	-0.10264066
126	0x3cd77f03	0.026305681
127	0x3e672b3c	0.22575086

fc3.weight f4 [64, 128]
0	0x3d446d97	0.047956076
1	0x3d41f05c	0.047348365
2	0xbe12a8a9	-0.14322151
3	0x3e11b6bd	0.14229865
4	0x3da0ea34	0.07857171
5	0x3d234152	0.039857216
6	0x3e4097b5	0.18807872
7	0x3defe719	0.11714
8	0x3d893cc5	0.06701044
9	0x3d02b811	0.03191382
10	0x3c5ae5f5	0.01336049
11	0x3d80d238	0.06290096
12	0xbe4f733f	-0.20258807
13	0x3cecf5cc	0.028925799
14	0x3d09485e	0.03351628
15	0xbbe26002	-0.0069084177
16	0x3d362025	0.04446425
17	0x3db737bf	0.089461796
18	0x3db277b8	0.08714241
19	0x3dd75636	0.1051449
20	0xbc11ad79	-0.008891457
21	0x3d9b8c4f	0.07595121
22	0x3e12652c	0.14296407
23	0x3e01f276	0.12690148
24	0x3c12ee80	0.008967996
25	0xbcbad625	-0.02280719
26	0x3cc382c8	0.023866072
27	0x3dc2cc32	0.095116034
28	0x3cb62475	0.022234181
29	0xbcbf69b7	-0.023365838
30	0x3c603131	0.013683603
31	0xbcf7d4ec	-0.030252896
32	0x3ce2826e	0.027650084
33	0x3d9c9f08	0.0764752
34	0x3c58d513	0.013234395
35	0xbd86535c	-0.06558868
36	0x3db20657	0.086926155
37	0xbb61a722	-0.0034431894
38	0x3e537480	0.2064991
39	0x3dc76942	0.09736873
40	0x3dbf2ff6	0.0933532
41	0xbda08da1	-0.078395136
42	0x3da3084b	0.07960566
43	0x3d56e00e	0.05245977
44	0xbc29bffa	-0.010360712
45	0x3e1757bd	0.14779563
46	0xbd9b88f4	-0.07594481
47	0x3e4742b0	0.19459033
48	0xbb5fe2d8	-0.003416231
49	0xbf03fc11	-0.515565
50	0x3c4a9599	0.012364768
51	0x3d249fb5	0.04019137
52	0x3e2b199d	0.1670899
53	0x3cfaa6e5	0.03059716
54	0x3e226dc8	0.1586219
55	0xbca9cfc3	-0.020728951
56	0x3e991c52	0.2990442
57	0x3cded3f1	0.02720067
58	0x3b5d3ff6	0.0033760048
59	0x3dc4bb45	0.09606031
60	0xbbe426d9	-0.006962639
61	0x3d914fad	0.07095275
62	0xbc87a901	-0.01656008
63	0xbf198554	-0.5996907
64	0xbc13fbb0	-0.009032175
65	0x3da36aac	0.079793304
66	0x3e32f5c5	0.17476566
67	0xbe0ce8f2	-0.13760737
68	0xba3dff0c	-0.0007247783
69	0x3d8f97e9	0.070113964
70	0x3e0c2871	0.13687302
71	0xbd268260	-0.04065168
72	0x3d5457df	0.051841613
73	0xbcc5b6b5	-0.024134973
74	0xbde90b33	-0.11379089
75	0x3e102342	0.1407595
76	0x3e847354	0.25869238
77	0x3e55c2df	0.20875119
78	0x3da901dc	0.08252308
79	0x3d0ac07b	0.03387497
80	0x3e46e11a	0.19421807
81	0x3dedf37e	0.11618708
82	0x3dee0284	0.116215736
83	0x3b554630	0.0032543056
84	0xbe6d0534	-0.23146516
85	0x3cc2d247	0.023781909
86	0x3ddfa020	0.10919213
87	0x3d8e0403	0.06934359
88	0x3e277dd0	0.16356587
89	0xbd55f8fd	-0.052239407
90	0xbce1fd17	-0.027586503
91	0x3e058615	0.1303943
92	0xbc78e535	-0.015191366
93	0xbdd53b78	-0.104117334
94	0x3e48a107	0.19592677
95	0xbd3eed0f	-0.046612795
96	0x3e252536	0.16127476
97	0x3e0adbe7	0.13560449
98	0x3c161528	0.0091603175
99	0x3e2090c2	0.1568022
100	0x3df35ca0	0.11882901
101	0x3d3c94f7	0.0460405
102	0x3ce79f79	0.028274285
103	0xbdf826d1	-0.12116779
104	0x3d1b662f	0.037939247
105	0xbd616531	-0.055028144
106	0x3c98f9c2	0.018673781
107	0xbd101111	-0.035172526
108	0x3e52d84d	0.20590325
109	0xbd544fbc	-0.051833853
110	0xbdb5cf2b	-0.08877405
111	0x3d3774a9	0.04478899
112	0x3cc552cd	0.024087334
113	0xbcfa66c0	-0.030566573
114	0xbbbc969e	-0.0057552597
115	0x3c75b398	0.014996432
116	0xbcc4985f	-0.023998437
117	0x3c82ec7c	0.015981905
118	0x3d172aea	0.03690616
119	0x3df14dda	0.11782427
120	0x3be8c211	0.0071032126
121	0x3d5f8501	0.0545702
122	0x3d50b00f	0.050949153
123	0x3c8416af	0.016124098
124	0x3da42a90	0.08015931
125	0xbd07b8c5	-0.033135194
126	0x3bd7f1d0	0.0065901056
127	0x3e9bbff7	0.30419895
128	0xbd696837	-0.056984153
129	0xbd19a81d	-0.03751384
130	0xbdacf858	-0.08445805
131	0x3c9199d8	0.017773554
132	0x3d1273aa	0.035754837
133	0xbc2149ed	-0.009844285
134	0x3d255592	0.04036481
135	0xbdd0a1ef	-0.101871364
136	0xbcfe394a	-0.031033177
137	0x3ccf9a4d	0.025342131
138	0xbc40e99d	-0.011774448
139	0xbd97c65e	-0.074108824
140	0x3cfc7b04	0.030820377
141	0xbd517b4b	-0.051142972
142	0x3d90c97e	0.070696816
143	0x3d894490	0.067025304
144	0xbc012286	-0.007881766
145	0xbc46213a	-0.012092883
146	0x3c2da932	0.010599421
147	0xbd7d1948	-0.06179169
148	0xbd492fed	-0.04911797
149	0x3d568bb6	0.052379332
150	0xbd3116f4	-0.04323478
151	0xbb9e0c5f	-0.004823252
152	0x3d8208a2	0.06349303
153	0xbd7f7fa7	-0.062377598
154	0xbd024939	-0.03180811
155	0xbc95d9c2	-0.018292312
156	0xbce1f72b	-0.02758368
157	0xbdbc9eef	-0.09210002
158	0xbda9fc4a	-0.083000734
159	0x3d5e3b9d	0.05425607
160	0xbdb65518	-0.08902949
161	0x3d2734a9	0.040821705
162	0xbc3e3671	-0.0116096595
163	0xbd906ecb	-0.07052382
164	0xbd102607	-0.035192516
165	0xbd54c426	-0.051944874
166	0xbd8e7d90	-0.06957543
167	0xbdb9cc08	-0.09072119
168	0xbdb39083	-0.08767798
169	0x3d8329c3	0.0640445
170	0x3d5c5359	0.053790424
171	0x3d583153	0.052781414
172	0x3cbcc380	0.02304244
173	0x3cd3adcf	0.025839714
174	0xbb43ebc6	-0.002989517
175	0x3d8f0463	0.069832586
176	0xbda24602	-0.07923509
177	0xbda3c99b	-0.079974376
178	0xbdb86e8a	-0.09005459
179	0xbb93dcca	-0.004512404
180	0xbd8eec0d	-0.06978617
181	0x3d52b70d	0.051444102
182	0xbdb376c2	-0.08762886
183	0x3d038962	0.03211344
184	0xbd018465	-0.031620402
185	0xbd31f497	-0.04344615
186	0x3d3f42c2	0.046694525
187	0xbc02e3c5	-0.007988875
188	0xbd73c3a1	-0.05951274
189	0xbdae1a20	-0.08501077
190	0xbb0fffc7	-0.0021972524
191	0xbd014ca1	-0.03156722
192	0x3d0100ba	0.031494834
193	0xbd989ee9	-0.07452185
194	0xbcad9757	-0.021190329
195	0x3da7fd8c	0.08202657
196	0xbd46179f	-0.04836237
197	0x3d174176	0.036927663
198	0x3d39e104	0.045380607
199	0x3c749ed5	0.014930447
200	0xbdc07623	-0.09397533
201	0xbd939908	-0.07206923
202	0xbcd6d95b	-0.02622669
203	0x3c47b568	0.012189247
204	0xbdc66687	-0.09687524
205	0x3d03cb96	0.032176577
206	0x3d25e302	0.040499695
207	0xbd2aaeba	-0.04167054
208	0xbd4f845a	-0.05066333
209	0xbdbb4b43	-0.091452144
210	0xbb9b8e94	-0.0047472212
211	0xbca43093	-0.020042693
212	0x3c3aa051	0.0113907615
213	0xbd77bb45	-0.06048133
214	0xbcefd376	-0.029275637
215	0xbb26cef1	-0.0025452937
216	0xbdbcfad4	-0.09227529
217	0xbb85fb41	-0.0040887897
218	0x3d940abf	0.07228612
219	0xbcee177a	-0.029063929
220	0xbd0aea52	-0.03391487
221	0xbd168356	-0.036746345
222	0xbd13a895	-0.036049444
223	0x3d5bfa23	0.053705346
224	0x3d84dde4	0.06487635
225	0xbd8d4bb6	-0.06899206
226	0xbd8b0caf	-0.067895286
227	0x3b46ddd1	0.0030344615
228	0x3d4dc7aa	0.050239243
229	0x3cfa4a58	0.030553028
230	0x3d48b434	0.04899998
231	0xbc55694f	-0.013025596
232	0x3d530f6d	0.051528383
233	0xbd84df91	-0.064879544
234	0xbd122536	-0.03568002
235	0x3c1e8e43	0.0096774725
236	0x3d0d4e4e	0.034498505
237	0xbd2c3a52	-0.042047806
238	0xb95fad6b	-0.0002133154
239	0xbda08498	-0.0783779
240	0xbd639129	-0.055558357
241	0xbdc49a9e	-0.095998034
242	0x3d2c291d	0.042031396
243	0xbd802062	-0.062561765
244	0x3cf58874	0.029972292
245	0x3cfd64f7	0.030931933
246	0x3afcc5c1	0.001928501
247	0x3c91becc	0.017791174
248	0x3da61c9a	0.08110924
249	0x3bbd6735	0.0057801255
250	0xbd2822e2	-0.04104889
251	0xbddc9195	-0.10769955
252	0xbd156396	-0.036471926
253	0xbdab387e	-0.083603844
254	0x3d45c8c6	0.048287176
255	0xbd21700d	-0.0394135

fc3.bias f4 [64]
0	0x3d863d25	0.06554631
1	0x3d5a9ce4	0.05337228
2	0x3e0801ae	0.13281891
3	0x3df86ec5	0.121305026
4	0xbd12458e	-0.035710864
5	0xbde99e02	-0.11407091
6	0x3d1acbc1	0.03779197
7	0x3be85117	0.007089745
8	0x3dc6919a	0.0969574
9	0x3e6b987a	0.23007384
10	0xbd83f1ef	-0.064426295
11	0x3d731c3e	0.059353106
12	0xbba54687	-0.005043808
13	0x3d8e4e52	0.06948532
14	0xbdb0c949	-0.08632142
15	0x3de3054e	0.11084996
16	0x3d10e4df	0.03537452
17	0x3d6b2547	0.057408597
18	0x3d6dcbb3	0.05805559
19	0x3c24cec5	0.010059063
20	0x3e0a669e	0.13515708
21	0xbd27e71f	-0.0409919
22	0xbbeda809	-0.0072526974
23	0x3b0789bb	0.002068146
24	0xbd193b58	-0.03741011
25	0x3de9e2c8	0.11420208
26	0xbcbfb06c	-0.023399554
27	0xbd4d2e52	-0.050093003
28	0xbdb5e2db	-0.0888116
29	0xbdbfaee1	-0.093595274
30	0x3c9b2db9	0.0189427
31	0xbd55d6fa	-0.05220697
32	0x3e226242	0.15857795
33	0x3d21cc6e	0.0395016
34	0xbc0f5367	-0.008747912
35	0xbc5acb14	-0.013354082
36	0xbc63273a	-0.013864333
37	0x3d0d9cde	0.03457343
38	0x3d66f165	0.056382556
39	0xbc994be4	-0.018712945
40	0x3e291303	0.16511159
41	0x3e515631	0.20443036
42	0xbd2478c6	-0.04015424
43	0x3db39735	0.08769075
44	0x3d7e597e	0.062097065
45	0xbd569cc2	-0.05239559
46	0xbc0d896d	-0.008638722
47	0x3cb41f29	0.021987515
48	0x3cbe895b	0.023258856
49	0x3d54c9d6	0.0519503
50	0xbb8dc874	-0.0043268744
51	0xbdb42aa3	-0.08797195
52	0xbca02019	-0.019546555
53	0xbd3353f5	-0.04378124
54	0xbd828487	-0.06372934
55	0xbd98fcf4	-0.07470122
56	0x3e1529c9	0.14566721
57	0x3dacc82a	0.08436616
58	0x3d8ecbe7	0.06972485
59	0x3d29d0be	0.041458838
60	0xbd6a551e	-0.05721008
61	0x3d6cabcb	0.057781022
62	0xbd94a6f3	-0.072584055
63	0x3cd86d74	0.026419379

fc_out_type.weight f4 [1, 64]
0	0x3d9ed0a6	0.0775464
1	0xbd0a68b8	-0.033791274
2	0xbea45d06	-0.3210222
3	0x3e7b59d0	0.2454598
4	0xbcc58877	-0.024112923
5	0x3c5190f9	0.012790912
6	0xbda032aa	-0.078221634
7	0xbd4ba37b	-0.049716454
8	0x3d432c81	0.047649864
9	0xbdd70690	-0.104992986
10	0xbe439d02	-0.19102862
11	0x3cdf9b74	0.027295806
12	0x3de1405c	0.10998604
13	0x3d2f477e	0.04279279
14	0xbdd283b2	-0.10279025
15	0x3cf3769e	0.029719647
16	0xbc35a1f7	-0.011085979
17	0x3d1c2086	0.038116954
18	0x3e30447f	0.17213629
19	0xbce3c08c	-0.027801774
20	0x3e28a636	0.16469654
21	0x39b29e18	0.00034068595
22	0xbd86ba10	-0.06578457
23	0xbd21c710	-0.03949648
24	0xbc7f0551	-0.015565232
25	0x3b9a23b4	0.004703963
26	0x3ec57be8	0.38571095
27	0xbd5814a2	-0.052754052
28	0xbd654da7	-0.05598226
29	0x3d308133	0.043091964
30	0xbd0b98f6	-0.03408142
31	0xbdb041aa	-0.086062744
32	0x3e09b5bd	0.13448234
33	0x3d0d8c1e	0.034557454
34	0xbc4246a7	-0.011857665
35	0xbd90d1ef	-0.07071292
36	0xbda1a91a	-0.07893582
37	0x3d51af24	0.051192418
38	0x3caea434	0.021318533
39	0xbdd7a618	-0.10529727
40	0x3c8106bd	0.015750283
41	0x3cf47b40	0.029843926
42	0xbde7823a	-0.113041356
43	0x3c164f4d	0.00917418
44	0xbf0f5824	-0.55993867
45	0xbdad495b	-0.08461257
46	0x3cec42af	0.028840391
47	0xbd840ec2	-0.06448127
48	0xbd128060	-0.03576696
49	0xbd954c2f	-0.072899215
50	0xbd3df6bd	-0.046377886
51	0xbd8b5db2	-0.0680498
52	0xbd1d2756	-0.03836759
53	0xbd8c0e6f	-0.068386905
54	0x3cc81d12	0.024427924
55	0xbd376da2	-0.04478229
56	0x3d11dc5d	0.035610545
57	0x3cd94d90	0.026526242
58	0x3d51fcca	0.05126647
59	0xbd8c76e4	-0.06858614
60	0x3c05861b	0.008149649
61	0x3d52965a	0.051412918
62	0xbcc3f88f	-0.023922233
63	0x3e996b60	0.29964733

fc_out_color.weight f4 [6, 64]
0	0x3e116a7f	0.14200781
1	0x3dae3f21	0.08508135
2	0x3e41f29f	0.18940209
3	0x3f953b21	1.165867
4	0x3b0a4a6f	0.0021101495
5	0xbc2fec78	-0.010737531
6	0x3d02a66a	0.031896986
7	0x3da124df	0.07868361
8	0x3e64e5d5	0.22353299
9	0xbeeff5c5	-0.46867195
10	0x3f9e6612	1.2374899
11	0x3dfe078d	0.12403784
12	0xbbe55800	-0.006999016
13	0x3e02acf7	0.12761293
14	0x3c1834fd	0.009289977
15	0x3e837638	0.2567613
16	0xbdd89e40	-0.10577059
17	0xbd5deb75	-0.054179627
18	0x3e85cedd	0.26134387
19	0x3dc49e56	0.09600513
20	0x3dd48d28	0.10378486
21	0x3c255c9a	0.010092879
22	0xbdd36092	-0.10321154
23	0xbd2e28cc	-0.042519376
24	0xbda05a8c	-0.078297704
25	0xc063d8a1	-3.560097
26	0x3e06d444	0.1316691
27	0xbd58c3ed	-0.052921224
28	0x3d88f485	0.066872634
29	0x3d7ac296	0.061220728
30	0x3d5a4e76	0.053297482
31	0x3c76c3a0	0.015061289
32	0xbfecfcab	-1.8514608
33	0x3df45e4b	0.119320475
34	0xbdbc3452	-0.09189667
35	0x3d99294d	0.074785806
36	0x3d95e230	0.073185325
37	0x3d8a96b5	0.06767026
38	0x3e2aac9c	0.16667408
39	0x3de93e40	0.11388826
40	0xbde4e707	-0.111768775
41	0x3d9fbab3	0.07799282
42	0xbd47ca98	-0.048777193
43	0xbdd7b23a	-0.10532041
44	0xbf2ded0f	-0.6793985
45	0x3dc4a8b3	0.09602489
46	0x3e259f9d	0.16174169
47	0x3c9271b7	0.01787649
48	0xbdaa9ef3	-0.083310984
49	0x3eaab7ce	0.33343357
50	0xbda6a41c	-0.0813677
51	0x3d89fca0	0.067376375
52	0x3e7ce740	0.2469759
53	0xbda10d1b	-0.07863828
54	0x3ecf5de3	0.40501317
55	0xbe054315	-0.13013871
56	0xbe46edd2	-0.19426659
57	0x3e1feb04	0.15616995
58	0xbf8d5a5e	-1.1043203
59	0x3d2d1632	0.042257495
60	0x3e40475b	0.1877722
61	0xc06a2d6f	-3.659023
62	0xbd425ebc	-0.047453627
63	0xbc488b12	-0.012240188
64	0x3e4da38f	0.20081924
65	0x3d7596d0	0.05995828
66	0x3e91a7a5	0.28448215
67	0xbcc024da	-0.023455072
68	0xba050fd2	-0.0005075905
69	0xbd93176e	-0.07182203
70	0xbde55057	-0.11196964
71	0xbb3a2ecf	-0.0028409248
72	0x3ccb218d	0.024796272
73	0x3e3cd719	0.18441428
74	0xbff50bc2	-1.9144213
75	0xbf8475cc	-1.0348449
76	0x396d4c00	0.00022630394
77	0x3dae1e5c	0.08501884
78	0xbd792a32	-0.060831256
79	0x3dcfe23f	0.10150575
80	0xbce6d68c	-0.028178476
81	0xc09cb2f2	-4.896844
82	0x3c57dd96	0.013175389
83	0x3d4e3ad9	0.05034909
84	0x3d8acc4d	0.067772485
85	0xbdfdb735	-0.123884596
86	0x3dbceb8b	0.09224614
87	0x3da39e24	0.07989147
88	0xbe0525e5	-0.13002737
89	0xbdb1f196	-0.08688657
90	0x3eb9b3ea	0.36270076
91	0xbce28687	-0.027652038
92	0xbdf1f817	-0.118148975
93	0x3abfe849	0.001464137
94	0x3c83b1cc	0.016075991
95	0xbdbf3cc0	-0.09337759
96	0xbdbccc19	-0.09218616
97	0x3e22b18b	0.1588804
98	0x3d82a5c6	0.06379275
99	0xbd3052e3	-0.043047797
100	0xbd8a8124	-0.06762913
101	0x3d1d4533	0.03839607
102	0xbcb5c109	-0.022186773
103	0x3cc8023e	0.024415132
104	0xc02a6ed4	-2.6630144
105	0x3defbfaf	0.117064826
106	0xbc065e00	-0.008201122
107	0x3dd7d397	0.105384044
108	0x3ebc9ee9	0.3683999
109	0xbde101c9	-0.109866686
110	0x3dc0b496	0.09409444
111	0xbc6e9691	-0.014562265
112	0x3ba2e84e	0.0049715405
113	0xc080cd3d	-4.0250535
114	0xbe0caf17	-0.13738666
115	0x3cc6dda8	0.024275616
116	0xbf423e5a	-0.7587639
117	0x3db65c07	0.089042716
118	0xbe6cc860	-0.23123312
119	0x3d8364df	0.06415724
120	0x3e53c8df	0.20682095
121	0xc07691f9	-3.8526595
122	0xbf4aa9f9	-0.7916561
123	0xbdba6eb8	-0.09103149
124	0xbf417343	-0.755665
125	0xbe271a89	-0.16318716
126	0xbda6234c	-0.08112201
127	0x3d512a1f	0.05106556
128	0xbf211bde	-0.62933147
129	0xbde85c31	-0.11345709
130	0xbf913b8f	-1.1346301
131	0xbe0c03ef	-0.13673376
132	0xbdd43ae6	-0.103627965
133	0x3d829800	0.06376648
134	0xbd8d861a	-0.069103435
135	0xbdc569ad	-0.09639297
136	0xbf132e0c	-0.57492137
137	0xbeb82b53	-0.35970554
138	0x3dd6d4c4	0.104898006
139	0xbc9c0cfd	-0.019049162
140	0xbcf64380	-0.030061483
141	0xbf4a8957	-0.79115814
142	0xbde73872	-0.11290063
143	0xbf0fedcb	-0.5622222
144	0xbe166554	-0.14687091
145	0xbd640129	-0.05566517
146	0xbe737402	-0.23774722
147	0x3cc52138	0.024063691
148	0xbe387e1e	-0.1801686
149	0xbdbdfcd7	-0.09276741
150	0x3d0c469f	0.034247037
151	0x3debb172	0.115084544
152	0xbcaf2008	-0.021377578
153	0x3e1c8316	0.1528438
154	0xbdedf55e	-0.11619066
155	0x3d373b93	0.04473455
156	0x3dd00eb1	0.10159052
157	0xbdcfd2ab	-0.101476036
158	0xbcbb4a30	-0.022862524
159	0x3d855ebd	0.065122105
160	0xbd4b73bd	-0.049670924
161	0xbed38caa	-0.41318256
162	0xbc954dc2	-0.018225554
163	0xbdd28917	-0.10280054
164	0xbd9f86a8	-0.077893555
165	0xbe5ea8bf	-0.21744059
166	0xbebfaa97	-0.37434837
167	0x3db998ff	0.09062385
168	0x3da5069c	0.08057901
169	0xbe0023ff	-0.12513731
170	0x3cbdca20	0.02316767
171	0xbe763463	-0.24043421
172	0xbecf9a3e	-0.40547365
173	0xbdac9ca8	-0.08428317
174	0xbe585791	-0.21127154
175	0xbc107f11	-0.0088193575
176	0xbde258c8	-0.1105209
177	0xbe746f5c	-0.23870605
178	0x3be5deea	0.007015099
179	0x3d4de480	0.050266743
180	0x3faf7329	1.3707019
181	0xbda8b4db	-0.082376204
182	0xbf34d93b	-0.7064397
183	0x3cb5a801	0.022174837
184	0xbe60607d	-0.21911807
185	0x3d6da36c	0.05801718
186	0x3f8b48b1	1.0881559
187	0x3b744701	0.0037273767
188	0xbe8a726d	-0.27040425
189	0x3e0caff7	0.13739
190	0xbd0c9f5b	-0.03433166
191	0xbddabeba	-0.106809095
192	0xbea4e173	-0.32203254
193	0x3c471698	0.012151383
194	0x3f3fc18d	0.7490471
195	0x3edf8e19	0.436631
196	0xbd0f4c03	-0.0349846
197	0xbddd48f1	-0.10804928
198	0xbdecc7e2	-0.11561562
199	0x3d063cb6	0.032772742
200	0xbef6c9c2	-0.48200804
201	0xbe426328	-0.18983138
202	0xbd322864	-0.04349555
203	0x3d7a22d4	0.06106837
204	0xbddc2f0e	-0.107511625
205	0xbe83dcca	-0.25754386
206	0xbd8e805f	-0.069580786
207	0xbf2aa0dc	-0.666517
208	0xbda78aa4	-0.081807405
209	0x3e39812c	0.18115681
210	0xbe93da36	-0.2887742
211	0xbd8e7c1c	-0.06957266
212	0xbe7c7d4e	-0.24657175
213	0x3ce15772	0.027507517
214	0x3d5de9f7	0.054178204
215	0x3dfb27ca	0.122634485
216	0x3db00faa	0.08596738
217	0x3eac3fa3	0.336423
218	0xbe699a95	-0.22812875
219	0x3d038f72	0.032119222
220	0x3dbb05a2	0.09131934
221	0x3d9913a5	0.0747445
222	0x3da36f20	0.0798018
223	0xbdd96979	-0.106158204
224	0x3e9f9229	0.311662
225	0xbf121f18	-0.57078695
226	0x3de53fc2	0.111938015
227	0xbd276967	-0.040872004
228	0xbc9e85ab	-0.019350847
229	0xbed0f86c	-0.4081453
230	0xbed74751	-0.42046598
231	0x3d8875a0	0.0666306
232	0x3e9267e9	0.28594902
233	0xbef168e7	-0.47150347
234	0x3dedcc8a	0.11611278
235	0xbe5b0ee7	-0.21392404
236	0x3e038bcf	0.12846301
237	0xbd15afbb	-0.036544543
238	0xbec29e8d	-0.3801159
239	0x3db18ca0	0.086694
240	0xbd256464	-0.040378943
241	0xbe43da13	-0.19126157
242	0xbd868a79	-0.0656938
243	0xbd25c55c	-0.04047142
244	0xbe44f98a	-0.19235817
245	0xbd464580	-0.048406124
246	0x3e8bf5a6	0.27335852
247	0x3e01cb3d	0.12675186
248	0x3e310028	0.17285216
249	0x3e033126	0.12811717
250	0xbf8c0154	-1.0937905
251	0xbca4fac2	-0.020139102
252	0x3e257876	0.16159233
253	0x3f013f26	0.5048698
254	0xbd085ca3	-0.03329147
255	0xbeb8e059	-0.36108664

fc_out_color.bias f4 [6]
0	0xbd7bd287	-0.06148007
1	0xbd46efc4	-0.048568502
2	0xbe0fc495	-0.14039834
3	0x3de0f166	0.10983543
4	0xbe098c47	-0.13432418
5	0x3dd70f54	0.105009705

fc_out_class.weight f4 [7, 64]
0	0x3e49c01e	0.19702193
1	0xbd620467	-0.05517998
2	0xbe6942ad	-0.22779341
3	0xc0ddd6bf	-6.932464
4	0x3d92499e	0.071429476
5	0x3d26c395	0.040713865
6	0x3c7e0c59	0.015505874
7	0x3d4795a8	0.048726708
8	0x3dba0a6d	0.0908402
9	0x3e468e2c	0.19390172
10	0xc0266d60	-2.6004257
11	0x3ee425ef	0.4456019
12	0xbc7111d0	-0.0147137195
13	0x3e39bde9	0.18138851
14	0x3dc808a5	0.09767274
15	0xbdbcb377	-0.09213918
16	0x3c81ef51	0.015861185
17	0x3da9b02d	0.08285556
18	0x3dcfcd00	0.101465225
19	0x3d70a99f	0.058755513
20	0x3ca72728	0.020404413
21	0x3ca354b9	0.01993786
22	0xbd865385	-0.06558899
23	0xbd3cfcf8	-0.046139687
24	0xbd7d812e	-0.061890773
25	0xbf174278	-0.590858
26	0x3e4aeda2	0.19817212
27	0xbdc4daff	-0.09612083
28	0x3d305d9e	0.04305803
29	0x3d14b28a	0.03630308
30	0x3ce1da70	0.02756998
31	0x3d5dc7a8	0.054145485
32	0xbf07d70f	-0.5306253
33	0xba8c1e76	-0.001069023
34	0x3d726b75	0.05918451
35	0x3c09912b	0.008396427
36	0x3d193ce5	0.03741159
37	0xbd2adfe0	-0.04171741
38	0xbdb6196b	-0.08891567
39	0xbe089acb	-0.13340299
40	0xbe364884	-0.178011
41	0xbbfcb8c0	-0.0077124536
42	0xbc89e398	-0.016832158
43	0x3e155970	0.14584899
44	0xbf9d8077	-1.2304829
45	0x3d2a36d6	0.041556202
46	0xbc89ee29	-0.016837196
47	0xbe00f2b4	-0.12592584
48	0x3dda9aa3	0.10674026
49	0x3f1134c2	0.5672113
50	0xbd0bf739	-0.034171317
51	0x3d78af38	0.060713977
52	0xbdc2b90e	-0.09507953
53	0xbd421347	-0.047381666
54	0x3e1bcdf2	0.1521528
55	0x3d949d21	0.072565325
56	0xbbf6cfe0	-0.007532105
57	0x3eb3b69c	0.35100257
58	0x3f872d37	1.0560673
59	0xbde1d265	-0.11026458
60	0x3eb9187a	0.36151487
61	0xbf1f746d	-0.62287027
62	0xbdee9462	-0.116493955
63	0x3e630e3b	0.22173397
64	0x3e4259d2	0.18979576
65	0x3c98e0db	0.018661907
66	0xbd031bb1	-0.03200883
67	0xbe9cbebe	-0.30614275
68	0xbdccb54f	-0.09995519
69	0xbda7b95f	-0.081896536
70	0x3db113cb	0.08646353
71	0xbe097015	-0.13421662
72	0x3e94ddd7	0.290755
73	0x3ab52d3f	0.0013822688
74	0xc0756984	-3.8345652
75	0xbf046336	-0.51713884
76	0xbd4ab17c	-0.04948567
77	0x3d8b3427	0.06797057
78	0x3de1a93e	0.110186085
79	0x3e021eb1	0.1270702
80	0x3dd2f5fc	0.10300824
81	0xbe1f8d6a	-0.15581289
82	0xbdcf7ac4	-0.101308376
83	0xbdd5b53f	-0.104349606
84	0xbbcdbe59	-0.0062787947
85	0xbda4dcba	-0.08049913
86	0x3c8bf36d	0.017083848
87	0xbdca67d6	-0.098830864
88	0xbd84652c	-0.064646095
89	0xbf9cea7d	-1.225906
90	0xbd99c794	-0.0750877
91	0xbdc69f4f	-0.096983545
92	0x3da1ddba	0.07903619
93	0x3cd94ce0	0.026525915
94	0xbd543a30	-0.051813304
95	0x3d0b0fb0	0.033950508
96	0x40773d46	3.8631148
97	0x3cece9f8	0.028920159
98	0x3d9b4385	0.07581238
99	0x3d94d578	0.072672784
100	0xbd156e33	-0.036482047
101	0x3e741d7c	0.23839372
102	0x3e337789	0.17526068
103	0xbd04154a	-0.032246865
104	0x3e4d72e7	0.20063363
105	0x3e8869fc	0.2664336
106	0xbda8d276	-0.08243267
107	0x3e753e9d	0.23949666
108	0x3eff9735	0.4992005
109	0x3d5ac1fd	0.053407658
110	0x3d189a8d	0.037256766
111	0x3d2f5471	0.04280514
112	0xbd203b37	-0.03911897
113	0xbf3ca287	-0.736855
114	0xbd8cc8dd	-0.06874249
115	0xbde47f1a	-0.11157055
116	0xc0dd500c	-6.9160213
117	0x3c3c4e77	0.011493317
118	0x3e9563e3	0.2917777
119	0x3dfbd22e	0.12295948
120	0x3d06578c	0.032798335
121	0xbf49f18a	-0.78884184
122	0x3edccd81	0.43125537
123	0x3d1c87fb	0.03821562
124	0x3e66575d	0.22494264
125	0xbf77b01c	-0.96753097
126	0xbda14489	-0.078744
127	0xbe48fbee	-0.19627354
128	0x3dafc61b	0.085827075
129	0xbdab33a6	-0.083594605
130	0xbe12815b	-0.14307158
131	0xbe6122b9	-0.21985902
132	0x3c20b128	0.009807862
133	0xbd2a4963	-0.041573893
134	0xbc5bc2b8	-0.013413124
135	0x3d4b9a28	0.04970756
136	0x3e59b2e1	0.21259643
137	0x3e957832	0.29193264
138	0xbf913fb6	-1.1347568
139	0xbed09a54	-0.40742743
140	0xbdc5500a	-0.09634407
141	0x3e1fa4f6	0.15590271
142	0x3d5c8ab3	0.05384321
143	0x3d1eeeb4	0.038801864
144	0xbd974b47	-0.07387405
145	0x3c04a908	0.008096941
146	0xbe99fced	-0.3007578
147	0xbce4ce6b	-0.027930459
148	0xbd958f94	-0.07302776
149	0xbb7e5d60	-0.003881298
150	0x3dc8bb95	0.098014034
151	0x3c087de0	0.008330792
152	0x3d3005ae	0.042974167
153	0xbec7ec61	-0.3904753
154	0xbc703a44	-0.014662329
155	0x3cafc2b4	0.021455146
156	0x3dc49d37	0.09600299
157	0xbd05c6b1	-0.03266019
158	0x3d8fe470	0.07025993
159	0xbd836bf4	-0.06417075
160	0xbde6007d	-0.11230562
161	0xbcbc2acd	-0.022969628
162	0xbd67f4ad	-0.056629825
163	0xbd0809fc	-0.033212647
164	0xbde66013	-0.112487935
165	0x3e0afa64	0.13572079
166	0xbd83c4c9	-0.06434018
167	0xbdae316c	-0.0850552
168	0xbb641680	-0.003480345
169	0x3e383dbf	0.17992304
170	0xbcb5c688	-0.022189394
171	0x3e106e78	0.1410464
172	0x3f485d56	0.7826742
173	0x3d3cc6db	0.04608808
174	0xbde309ef	-0.11085879
175	0xbcb036ea	-0.02151056
176	0x3dac439b	0.08411332
177	0xbe398185	-0.18115814
178	0xbc270652	-0.010194378
179	0xbd5b69e4	-0.053567782
180	0xbe25b05d	-0.16180559
181	0xbd908c19	-0.070579715
182	0xbefba572	-0.49149662
183	0x3d995faa	0.074889496
184	0xbca1ae6e	-0.019736495
185	0xbe236ddd	-0.15959878
186	0xbef52f1d	-0.47887507
187	0xbcf95e34	-0.030440427
188	0xbf1e07d8	-0.6173072
189	0xbea0d436	-0.31411904
190	0x3dbe28d8	0.09285134
191	0x3db4befb	0.08825489
192	0x3e917255	0.2840754
193	0x3d9bf3b4	0.07614842
194	0xc0811fac	-4.035116
195	0xbf033b4d	-0.5126236
196	0x3dbebf8f	0.09313881
197	0x3da91c99	0.08257408
198	0xbde17cb6	-0.11010115
199	0xbb4fb954	-0.0031696158
200	0x3ea89854	0.32928717
201	0xbeb71dea	-0.3576501
202	0xbe0b1bd9	-0.13584842
203	0x3d58d1b9	0.052934382
204	0xbdf9f9ea	-0.122058704
205	0x3eee3bd8	0.46530032
206	0x3dbd71c0	0.09250212
207	0xbe3629ca	-0.17789379
208	0x3ec000db	0.37500653
209	0x3db12b44	0.086508304
210	0x3e1639f8	0.14670551
211	0xbdfabc8c	-0.12242994
212	0x3eaa7c0d	0.33297768
213	0xbe082cc8	-0.13298333
214	0xbde5173d	-0.11186073
215	0xbd5e3ad0	-0.054255307
216	0x3cad51f8	0.02115725
217	0x3de9fe79	0.1142549
218	0x3d93670d	0.0719739
219	0xbdcb043d	-0.09912918
220	0xbd157652	-0.036489792
221	0xbccfa423	-0.025346821
222	0xbdc7a952	-0.09749092
223	0xbcd61488	-0.026132837
224	0x3e99305c	0.29919708
225	0x3edac45c	0.42727935
226	0x3dc65718	0.096845806
227	0xbe0cb3dc	-0.13740486
228	0x3dbc9142	0.09207393
229	0x3e8e609d	0.27808085
230	0x3e65d25d	0.22443528
231	0xbb01473e	-0.0019726302
232	0x3e55b576	0.20870003
233	0x3ea70c99	0.326268
234	0xbdffb67a	-0.124859765
235	0x3e15c368	0.14625323
236	0xbec52eb5	-0.38512197
237	0xbd714c70	-0.058910787
238	0x3e19c062	0.15014794
239	0x3c05d188	0.008167632
240	0xbdbb83c7	-0.09155994
241	0xbe03efdf	-0.12884472
242	0x3d08d1aa	0.033403076
243	0x3d9c197c	0.07622048
244	0xc08db316	-4.428111
245	0xbd9d68d8	-0.07686013
246	0x3f067b20	0.52531624
247	0x3d154fa4	0.036452904
248	0x3db2b72f	0.08726346
249	0x3d9438a8	0.07237369
250	0xbdc008e4	-0.09376696
251	0x3daafea6	0.083493516
252	0x3e9b10d4	0.30286276
253	0x3ded1f7b	0.1157827
254	0x3d838d75	0.06423465
255	0x3d3ed2b0	0.046587646

fc_out_class.bias f4 [7]
0	0x3daf2728	0.0855239
1	0x3e173c42	0.1476908
2	0x3dbd3dc3	0.09240296
3	0x3d9eec30	0.07759893
4	0x3e015000	0.12628174
5	0x3b6de967	0.0036302449
6	0xbed390f7	-0.41321537
